Lab1/checkpoint.pth (torch, 549602 bytes, 48 tensors)

fc1.weight f4 [128, 256]
000000 dc c3 04 3b bf 82 92 bc 01 e0 4a bd 9d cb ed bc
       0.0020258343 -0.01788461 -0.049530033 -0.029027754
000010 3e 43 80 bd 87 08 83 bd bf a5 ac bd a7 4d b4 3d
       -0.062628254 -0.06398111 -0.08430051 0.088038735
000020 36 6e ea 3d ed 84 2d 3d d4 57 22 3d a7 0c cc 3c
       0.11446802 0.042363096 0.03963454 0.024908377
000030 52 d7 c9 bc 1f 77 6d 3c 7d 23 aa 3d 82 59 d4 3c
       -0.024638806 0.014493733 0.0830755 0.025921587
000040 af 0c ed 3b 1d 0c 30 bb e9 c0 31 bd 6b 73 49 bd
       0.007234178 -0.0026862689 -0.043396864 -0.049182337
000050 c7 d2 68 bd 76 da cc bc 23 88 9a bb 99 13 0f 3e
       -0.056841638 -0.025006514 -0.004715936 0.1397232
000060 57 30 8a 3d 21 54 3c bd d6 8a 99 bd c0 69 23 bd
       0.06747501 -0.04597867 -0.07497184 -0.039895773
000070 53 75 a9 bb 68 61 0f bd cb 1f d8 3d 4e 92 04 3d
       -0.005171457 -0.035005003 0.10552939 0.03236609
000080 cb 1d 39 3c c5 d1 e4 bb 91 a1 d9 bb 68 0f ee 3b
       0.011298607 -0.0069830143 -0.0066415747 0.00726502
000090 22 f3 16 3d 94 16 17 3d bd c3 e4 bc f8 cb a9 3d
       0.036852963 0.036886767 -0.027925367 0.08290857
0000a0 a5 7c 33 bc c5 63 8a bd eb 9b 07 bd 32 2a 45 3a
       -0.010955011 -0.06757311 -0.03310768 0.0007521241
0000b0 c9 4c db 3b 47 84 aa 3c 66 61 b6 3c 60 f4 f4 3c
       0.006692503 0.020815028 0.02226324 0.029901683
0000c0 55 6c e7 bb 30 fa 92 bb 08 fd d8 bb e8 47 21 bd
       -0.0070624747 -0.004485391 -0.0066219606 -0.039375216
0000d0 10 76 fe bc 3d 78 de bb 0c 61 46 3d 85 07 f7 3d
       -0.031062156 -0.006789236 0.048432395 0.12061981
0000e0 d4 f8 cb 3d 30 7d 93 3c f8 ee fc 3c ed 1f 53 bd
       0.099595696 0.01800403 0.030875668 -0.05154412
0000f0 3e f2 ab 3c cd 93 91 bc ce 8b 53 bd 22 82 0e bb
       0.020989534 -0.017770672 -0.051647 -0.0021745046
000100 b0 b8 b5 3b 6f 8e fb ba 01 e7 3d 3d a4 a7 ee 3b
       0.005545698 -0.0019192229 0.04636288 0.007283168
000110 47 34 07 bc 80 0c aa bd b0 f6 4c 3d 03 bc 03 3e
       -0.00825221 -0.083031654 0.050039947 0.1286469
000120 41 cb 65 3d 5c 90 bf 3c 58 30 c3 bc 99 16 bf bc
       0.05610204 0.023384266 -0.023826763 -0.023326205
000130 ea eb 12 bc 58 1a f4 bc db d7 b0 bc 43 6c f5 3b
       -0.008967379 -0.029797718 -0.021587303 0.0074897124
000140 bd 70 b5 bc 53 4c ba bc e6 3e 28 3d 86 bd 57 3c
       -0.022148484 -0.022741472 0.04107561 0.0131677445
000150 47 e2 68 3c 62 68 5e bd f9 ad 87 ba b9 f8 93 bd
       0.014214105 -0.054298766 -0.001035153 -0.072251745
000160 02 c6 26 bd 44 0b 92 3d 68 31 8e 3d dc ca 75 3d
       -0.04071618 0.07131055 0.06943017 0.060007915
000170 81 10 06 3d a6 91 9d bc ac b1 42 3c 9b df b8 3c
       0.032730583 -0.01923449 0.011883181 0.02256756
000180 6e 7b 80 bc 39 17 e3 3b 99 12 98 bc de ca 91 bd
       -0.015683856 0.0069302586 -0.018563556 -0.07118772
000190 ef 1e 62 bc 14 1e 6a bc e3 f2 f9 bc 43 bd e2 bd
       -0.01380132 -0.014289398 -0.030511325 -0.11071255
0001a0 67 c0 3a bd dd dc 2e 3d d4 19 aa 3d d9 d8 0e 3d
       -0.045593645 0.0426911 0.083057076 0.03487477
0001b0 56 74 48 bd ee 38 58 bd e2 50 9b bc 1b 91 50 bc
       -0.04893907 -0.052788667 -0.018959466 -0.012729908
0001c0 56 c3 b2 bc 96 64 c1 3c 2c de 4b bd 33 1d 92 bd
       -0.021821659 0.023607533 -0.049772426 -0.071344756
0001d0 00 ee 37 bc a0 0d 5f 3c 7f 6a 4a 3d 5b ab 4b bd
       -0.011226177 0.013614088 0.04941797 -0.049723964
0001e0 9e 83 8b bd 89 1a 45 3c f9 b2 c9 3c d6 65 2b bd
       -0.06812213 0.012030252 0.024621474 -0.041845165
0001f0 5a 5f 0d bd c3 0a 2b bd 39 af 0d bd c0 08 03 bd
       -0.034514762 -0.04175831 -0.034590933 -0.031990767
000200 f4 9d e2 bc c8 9b db bc ab ce 9d bc c5 69 22 bd
       -0.027663209 -0.02680768 -0.019263586 -0.03965165
000210 be 7d aa bd 15 74 f0 3c 72 cb 30 3b cb 19 ea 3c
       -0.08324765 0.029352227 0.0026976732 0.028576752
000220 35 c3 0e bd f5 76 c3 3b bb 9c 5c bc a6 af ac bd
       -0.034854133 0.0059651085 -0.013465102 -0.0843194
000230 39 5f db bc 26 f9 b3 bd 81 9d 6a bd db 59 81 bd
       -0.026778804 -0.08787756 -0.057279114 -0.06315967
000240 f5 c3 1d bd bc d9 17 bd ab 50 22 bd a1 71 14 bd
       -0.038516957 -0.037072882 -0.039627712 -0.036241177
000250 4f 00 9a bd 4a db f8 bd dc e6 82 bd b8 fc a9 3d
       -0.0751959 -0.12151201 -0.06391689 0.083001554
000260 71 dd 7c 3d 29 e6 2e 3d 99 1f 04 3c 99 56 20 bd
       0.06173462 0.042699967 0.008064174 -0.039145086
000270 0e 23 8c bb a9 a6 1a bd 44 8b 67 bd c1 12 34 bd
       -0.00427664 -0.037756596 -0.0565293 -0.043963198
000280 27 e0 21 bd 8d a5 36 bd d7 23 3a bd 30 ac e1 bd
       -0.03952041 -0.044591475 -0.045444336 -0.1101917
000290 ca 4a 0c be ec ec 07 be 45 99 fb bd e7 3a 39 3e
       -0.13700405 -0.13273972 -0.12285093 0.18088876
0002a0 47 61 1d 3e 55 ea 92 3d 26 eb 20 bd 52 8f 37 bd
       0.1536914 0.071736015 -0.039286755 -0.044814415
0002b0 16 a7 cb 3c 70 32 b1 bb 39 bb 34 bd b1 66 de bc
       0.024859946 -0.005407624 -0.044123862 -0.027148576
0002c0 03 48 84 bd ec 62 5b bd bf d1 8a bc 2b 1f a5 bd
       -0.06459048 -0.053561136 -0.016945718 -0.080625854
0002d0 1d 77 b6 bd 35 3d 0f bd aa 12 cc bc 3e 76 6c 3e
       -0.08909438 -0.03497048 -0.024911243 0.23091981
0002e0 6d 8b c3 3d 4a 03 66 3d 82 35 88 bd 4e dc 03 bd
       0.09548078 0.05615548 -0.06650831 -0.03219252
0002f0 04 c9 9b bb 34 bd 76 3d 3e 20 4b bd d7 a0 f4 bc
       -0.0047541875 0.060239032 -0.049591295 -0.02986185
000300 2d 75 0e bd ec 5f 61 bd e9 c0 90 bd 79 a4 87 bd
       -0.034779716 -0.05502312 -0.07068045 -0.066231675
000310 62 57 58 bd 6e ac 68 bd 92 a6 60 3d 0b 70 10 3e
       -0.05281771 -0.056805067 0.054846354 0.14105241
000320 e6 f3 85 3b 62 57 54 bd 2c b9 73 bd d5 db 50 3c
       0.004087913 -0.051841147 -0.059502766 0.012747725
000330 f4 b8 62 3d 83 c1 8c 3d 2e 7c 8f bd c5 a8 78 bc
       0.055352166 0.06872847 -0.07006107 -0.015176957
000340 6d c5 f1 b9 b6 99 83 bd b8 56 7d bd 5f 30 25 bd
       -0.00046114196 -0.064258024 -0.06185028 -0.040329333
000350 d9 93 f7 bc 1f fd 2d bd 54 e5 92 3d 0b 57 69 3e
       -0.030221866 -0.042477723 0.07172647 0.2278711
000360 18 5f a0 3d 12 59 01 3d f0 bd ad bc f3 8a e9 bb
       0.07830638 0.031579085 -0.021208733 -0.0071271597
000370 83 6b 9d 3c 38 67 2f 3c 2f cf ca bc 37 d7 8a bb
       0.019216305 0.010705762 -0.024756996 -0.0042370814
000380 63 df eb 3c 0a 4e f3 3c ae 38 19 3b e9 5c 41 bc
       0.028793043 0.029700298 0.002337973 -0.011801937
000390 7b 97 22 bd 51 f8 b5 3b 0c b1 20 bc ba 50 d3 3d
       -0.039695244 0.0055532833 -0.009807836 0.10318132
0003a0 ad d3 ab 3d 5c 17 bd 3d 73 ce 3c 3d ff 05 df 3d
       0.08389983 0.09232971 0.046095323 0.108898155
0003b0 af 13 61 bc d9 d0 0d bd b7 94 1c bc 43 a8 3f 3b
       -0.013737603 -0.034623 -0.009556941 0.002924458
0003c0 bc 72 e2 3a b2 a6 4d 3c 1b 2c 27 3d 18 93 c2 3b
       0.0017276625 0.01255195 0.040813547 0.005937945
0003d0 24 54 4c bc f8 66 e1 bc f5 20 3c bc c4 6a 4b 3b
       -0.012471233 -0.02751492 -0.011482467 0.003103898
0003e0 7b 01 cd ba 74 6f db 3c 72 84 3b 3d ae 5d 7e 3c
       -0.00156407 0.026786543 0.045780607 0.015525265
0003f0 8e 19 85 39 63 f8 1b 3c 30 25 0e 38 b5 b3 59 3a
       0.00025386777 0.009519669 3.389007e-05 0.00083046715

fc1.bias f4 [128]
000000 54 04 1a 32 79 a0 96 31 36 a5 0d b2 ae 6b df b2
       8.964964e-09 4.383818e-09 -8.244845e-09 -2.6009584e-08
000010 bb cc e9 31 f9 48 60 b2 7a 93 08 32 8d eb 8a b1
       6.8044677e-09 -1.3055108e-08 7.949774e-09 -4.0431076e-09
000020 5b 60 8a b2 11 df 8c 32 80 28 e6 31 ab c5 81 b2
       -1.6109132e-08 1.6399584e-08 6.6984853e-09 -1.5107466e-08
000030 68 3d 16 32 0d f1 8d 31 4d 47 ce 32 2b 65 21 b3
       8.745111e-09 4.1310444e-09 2.401398e-08 -3.7577745e-08
000040 01 6d 01 b2 6b f5 13 32 0a 74 c1 b1 3c ca 02 33
       -7.533573e-09 8.612328e-09 -5.6302314e-09 3.0451915e-08
000050 df 73 89 2f 33 a1 bd 32 6e 1b 72 32 69 55 8c b0
       2.5002486e-10 2.20758e-08 1.4092491e-08 -1.0210616e-09
000060 44 43 08 33 84 2e 05 31 c8 f6 1a 2f 1d 7d a0 b2
       3.1726145e-08 1.9380488e-09 1.4093893e-10 -1.8683346e-08
000070 fd f8 84 32 d7 5c 07 b3 f6 21 e9 b2 0d dd a2 31
       1.548005e-08 -3.1516574e-08 -2.7140214e-08 4.739951e-09
000080 52 71 04 31 ff a1 11 b3 4b f6 4c 32 9b 60 c3 32
       1.9272943e-09 -3.3907778e-08 1.1930363e-08 2.2744919e-08
000090 fd cb 7e 32 a6 48 f9 31 e6 36 54 32 90 0f 29 b3
       1.4831127e-08 7.255113e-09 1.2352507e-08 -3.9362533e-08
0000a0 18 1b a4 32 0f 6c 57 30 46 9a 0f b1 3b ff 57 30
       1.9104434e-08 7.8370105e-10 -2.0896933e-09 7.857925e-10
0000b0 ec ee a9 b2 1a ad 60 b1 c0 8a 86 b2 ed 65 74 b1
       -1.9782838e-08 -3.2694687e-09 -1.566275e-08 -3.5564611e-09
0000c0 63 c7 16 b2 bd 89 94 b2 45 ab bb b2 91 cd 98 32
       -8.776484e-09 -1.7292104e-08 -2.184755e-08 1.778861e-08
0000d0 5c 0d 45 31 85 68 70 32 3d 30 d5 32 58 c9 2e 33
       2.8674867e-09 1.3993604e-08 2.48184e-08 4.0695653e-08
0000e0 28 5e a6 b0 61 cb cd 32 ff 00 c0 32 a7 ee 0f 33
       -1.210485e-09 2.3957627e-08 2.2352195e-08 3.3511835e-08
0000f0 ea ec 6f b1 a1 ae f1 b2 06 70 35 b0 a0 58 67 32
       -3.4913747e-09 -2.8135505e-08 -6.600661e-10 1.3466121e-08
000100 c5 3c 0a b1 4a 4e 9e b2 78 77 04 b3 85 4b d3 b1
       -2.0116186e-09 -1.8429223e-08 -3.08423e-08 -6.149494e-09
000110 c0 61 82 31 37 f1 b1 b1 52 0a 50 b2 01 4e 3a b2
       3.794611e-09 -5.178801e-09 -1.210954e-08 -1.0844361e-08
000120 4b 2f 08 34 6b 23 a1 31 ee 17 13 32 04 32 2e 32
       1.2683192e-07 4.6897433e-09 8.561967e-09 1.0139505e-08
000130 75 30 30 b2 4f 71 22 32 d9 72 bd b2 a6 1d 69 b2
       -1.0255566e-08 9.4554045e-09 -2.2054722e-08 -1.3569126e-08
000140 92 c3 83 b2 67 ac 55 32 33 db 2e 2f 55 42 a0 31
       -1.5339342e-08 1.24374315e-08 1.5903083e-10 4.664154e-09
000150 80 71 de 32 be fb f0 b2 74 95 6d b2 41 5b 8c 31
       2.5895815e-08 -2.8054156e-08 -1.3829197e-08 4.0849106e-09
000160 e9 37 6f b2 4e b2 8e 30 d0 22 2a b2 05 1f 21 31
       -1.39243435e-08 1.0382537e-09 -9.903218e-09 2.3446216e-09
000170 7e 44 f7 b1 e4 ba 11 b2 65 5c 09 32 e7 63 83 b2
       -7.196433e-09 -8.482605e-09 7.995458e-09 -1.5295837e-08
000180 8d ad 75 b2 dc f0 86 b1 af f6 22 33 35 84 2f b2
       -1.4300338e-08 -3.927296e-09 3.794292e-08 -1.0216401e-08
000190 b6 00 b2 b1 5b 06 09 b3 89 f6 e7 32 09 17 07 b3
       -5.1805626e-09 -3.190358e-08 2.700405e-08 -3.1453087e-08
0001a0 86 07 8e b2 22 c2 e1 b0 7e f8 58 32 20 01 a0 33
       -1.6534397e-08 -1.642608e-09 1.2629355e-08 7.450785e-08
0001b0 ec 9a fa 30 98 51 7e 32 f9 bf 35 33 2b 2f 01 32
       1.8233925e-09 1.4803298e-08 4.2316945e-08 7.519513e-09
0001c0 26 1b 48 b2 b5 19 30 32 8d 16 dd b2 65 1e 4c 32
       -1.1647705e-08 1.0250393e-08 -2.5738041e-08 1.1881274e-08
0001d0 60 e9 29 b3 6c d5 e2 b1 64 a0 88 b2 26 a9 08 b2
       -3.9560632e-08 -6.601729e-09 -1.5905421e-08 -7.954702e-09
0001e0 4b 6b 96 b2 3b 44 86 ae 77 8c 0f 32 00 26 72 b3
       -1.751109e-08 -6.105735e-11 8.3556335e-09 -5.6379577e-08
0001f0 fc a5 09 b3 5f c8 8e 31 cf 08 27 b2 b7 8f 2c 32
       -3.204876e-08 4.1555235e-09 -9.722682e-09 1.0044395e-08

bn1.weight f4 [128]
000000 77 06 29 3f fe 19 12 3f ba 4d 2a 3f 40 70 32 3f
       0.6602549 0.5707091 0.6652485 0.6970253
000010 60 88 21 3f fc a0 31 3f b1 b6 1e 3f af f1 31 3f
       0.63098717 0.6938627 0.61997515 0.69509405
000020 51 f1 42 3f 30 4f 23 3f 02 2d 4b 3f ad 53 19 3f
       0.7614947 0.63792706 0.7936555 0.59893304
000030 40 67 18 3f 52 f9 2f 3f cc bc 22 3f 7f 27 47 3f
       0.59532547 0.6873981 0.6356933 0.7779464
000040 2f 73 0c 3f 3b ae 46 3f 4c db d2 3e 48 34 36 3f
       0.54863256 0.77609605 0.41182935 0.71173525
000050 03 66 2f 3f b8 a2 17 3f a5 7b 30 3f 8b c4 3b 3f
       0.6851503 0.59232664 0.68938667 0.73346776
000060 ce d6 1e 3f c9 a9 28 3f 74 02 1f 3f b1 86 40 3f
       0.62046516 0.6588407 0.6211312 0.7520552
000070 52 85 20 3f 98 2c 66 3f 3e bb 40 3f d3 48 1d 3f
       0.6270343 0.89911795 0.7528571 0.61439246
000080 3d 0e 0e 3f a1 98 29 3f 12 95 34 3f 24 91 1d 3f
       0.55490476 0.6624852 0.70539963 0.6154959
000090 be f3 3b 3f e6 55 4b 3f dd a4 55 3f 75 f4 0c 3f
       0.73418796 0.79427946 0.83454686 0.5506051
0000a0 7c 1a 1a 3f 43 d9 3e 3f 1c c3 45 3f d2 66 33 3f
       0.6019666 0.74550265 0.7725084 0.70078766
0000b0 93 96 43 3f 4e bf 2a 3f b4 1b 34 3f 13 69 24 3f
       0.76401633 0.6669816 0.7035477 0.6422283
0000c0 8a ac 3c 3f 44 2a 0b 3f 8f fd 07 3f 94 d6 3b 3f
       0.73700774 0.5436137 0.53121275 0.73374295
0000d0 56 65 15 3f 13 41 37 3f 4b da 30 3f f5 23 3f 3f
       0.5835775 0.7158367 0.6908309 0.7466424
0000e0 0a a3 4b 3f 2c 4d 22 3f 57 ba 38 3f 28 53 35 3f
       0.7954565 0.63399005 0.7215933 0.7083001
0000f0 b2 2c f5 3e 42 ec 3d 3f f5 61 36 3f 65 22 3a 3f
       0.47885662 0.74188626 0.7124322 0.7270873
000100 f8 3f 49 3f 6d 10 29 3f ad f3 3f 3f 01 01 18 3f
       0.78613234 0.6604069 0.74981195 0.5937653
000110 3c ed 0e 3f 27 09 3f 3f 14 b0 54 3f 61 b2 22 3f
       0.5583074 0.7462334 0.83081174 0.63553435
000120 45 51 45 3f 4f 53 33 3f 5a f8 31 3f f1 50 50 3f
       0.7707713 0.70048994 0.6951958 0.81373507
000130 a5 b4 1c 3f 2a b3 38 3f ef 75 32 3f cf 21 1a 3f
       0.6121314 0.7214838 0.697112 0.6020784
000140 4f fd 50 3f 49 97 27 3f c8 16 24 3f 2d a7 06 3f
       0.8163652 0.6546522 0.6409726 0.5259884
000150 ec 28 3c 3f b2 fe 37 3f fe a5 2e 3f e1 5b 18 3f
       0.7349994 0.7187301 0.68222034 0.59515196
000160 c4 b5 28 3f e8 62 f5 3e cd 2c 2a 3f 25 ad 1e 3f
       0.6590235 0.47927022 0.6647461 0.6198295
000170 a6 25 58 3f 2a 9f 45 3f d6 af 1f 3f c7 e3 47 3f
       0.84432447 0.7719599 0.6237768 0.78081936
000180 87 e6 09 3f 1c 2c 22 3f b5 30 4c 3f 38 69 26 3f
       0.5386738 0.63348556 0.7976182 0.650043
000190 b3 90 11 3f 99 5e 47 3f e5 59 2f 3f bf 3a 29 3f
       0.5686142 0.7787872 0.68496543 0.66105264
0001a0 ec da 4c 3f 0c 8d 30 3f 13 8b 3d 3f 41 20 3d 3f
       0.8002155 0.6896522 0.74040335 0.7387734
0001b0 e2 d0 17 3f 9b 5c 27 3f 6e c3 34 3f d4 3b 3a 3f
       0.59303105 0.6537568 0.706107 0.7274754
0001c0 48 3d 2b 3f 22 6a 2a 3f 5e a6 22 3f 1a 6b 3d 3f
       0.6689038 0.66568196 0.63535106 0.7399155
0001d0 f5 23 3f 3f cf a6 f2 3e 3c d9 35 3f b7 c1 4b 3f
       0.7466424 0.4739289 0.710346 0.7959246
0001e0 c6 ab 37 3f 92 02 14 3f 0f a5 19 3f 86 a7 25 3f
       0.7174648 0.5781642 0.60017484 0.64708745
0001f0 12 29 3c 3f d3 28 44 3f f4 29 23 3f 0f 62 36 3f
       0.7350017 0.7662479 0.6373589 0.71243376

bn1.bias f4 [128]
000000 6c 42 b8 bd f2 d9 f6 bd 6d 6f 29 be c2 ac c6 be
       -0.08997044 -0.120532885 -0.16546412 -0.3880368
000010 90 96 c3 bc aa c7 60 be 39 ec f1 bd 8f 1c ef bd
       -0.023875505 -0.21951166 -0.11812634 -0.11675369
000020 44 d5 83 be 4d ac 88 be 97 a8 46 be 51 d0 fd bd
       -0.25748646 -0.26693955 -0.1940025 -0.12393249
000030 a8 b9 46 be a2 cf 82 bd a6 73 30 be 0f 7b 62 be
       -0.1940676 -0.06387259 -0.17231616 -0.22117256
000040 03 a4 01 be ea ae eb bd a5 48 36 be fe 11 40 be
       -0.12660222 -0.115079716 -0.17801149 -0.18756863
000050 e5 86 35 be ad 02 95 3a 20 bc 5f be b8 77 49 be
       -0.1772724 0.0011368595 -0.21849108 -0.19674575
000060 cd b1 4d be 2b 3e e6 bd b0 73 8e be 64 70 93 bd
       -0.20087357 -0.11242326 -0.27822638 -0.07199171
000070 9d 7a 16 be c8 fd 08 be ff 58 15 be 73 d5 8c bd
       -0.14695211 -0.1337806 -0.1458473 -0.0687665
000080 4f b4 18 be 6e 5e 94 bd 70 46 37 be 8f 16 4e be
       -0.14912532 -0.072445735 -0.17897964 -0.20125793
000090 b3 a9 2b be ad 7d 92 be 16 eb 43 be c8 09 b2 bd
       -0.16763954 -0.28611508 -0.19132647 -0.08693272
0000a0 51 10 63 be d5 30 d5 bd db 44 50 be 02 7d b2 bd
       -0.22174193 -0.104097046 -0.20338766 -0.087152496
0000b0 8b f7 e1 bd 5f 97 16 be 5b a6 7b be b7 b1 d0 bc
       -0.11033543 -0.14706181 -0.24575178 -0.025475366
0000c0 d6 ed 40 be 46 e1 25 be c1 b0 90 bd c4 58 84 be
       -0.18840727 -0.16199216 -0.07064963 -0.25848973
0000d0 85 1e 87 bd 2b ac a7 bd 36 ff af bd 2a 62 42 be
       -0.06597618 -0.08187135 -0.085935995 -0.18982759
0000e0 20 ce fb bd 22 87 1e be 62 55 f6 bd 9b 63 74 be
       -0.122951746 -0.15481237 -0.12028004 -0.23866121
0000f0 ad 45 1a be 59 32 2a be ae d8 2a be c0 7f 14 be
       -0.15065642 -0.16620769 -0.16684219 -0.14501858
000100 23 12 97 be c2 6b e4 bd 01 20 5f be 76 d2 a2 be
       -0.29506025 -0.11153366 -0.21789552 -0.31801194
000110 8e e1 ef bd 7c 3a 41 be c9 44 80 be 5d 0f 86 bd
       -0.11712943 -0.18869966 -0.2505248 -0.06545899
000120 91 74 38 be 4d 12 de bd 6e a0 5e be 2b a0 52 be
       -0.18013217 -0.10843334 -0.21740887 -0.20568912
000130 14 77 e9 bd c4 6e 47 be 38 9e 20 be 29 db 1e be
       -0.113996655 -0.19475847 -0.15685356 -0.1551329
000140 d6 40 13 be 22 c6 0c be 5f 06 d9 bd 58 82 18 be
       -0.14380202 -0.13747457 -0.10596918 -0.14893472
000150 4b fa d4 bd b4 42 4a be 5c 31 b4 bd e9 d7 db bd
       -0.10399302 -0.19752008 -0.08798477 -0.10734541
000160 32 98 52 be de 68 2d be 64 b2 86 be 76 12 02 be
       -0.2056587 -0.16934535 -0.26307976 -0.12702355
000170 c9 07 5c be d3 e4 93 be 79 3c e3 bd b3 db 88 be
       -0.21487345 -0.28885517 -0.110955186 -0.26730117
000180 07 5f 59 be 3a 28 15 be 75 b8 af be a0 da 7f be
       -0.21227656 -0.14566126 -0.34320417 -0.24985743
000190 5c 8e cd bd 31 d7 ab bd 3a 05 64 be a4 f2 01 be
       -0.100369185 -0.08390654 -0.22267619 -0.12690216
0001a0 c7 c0 6b be 30 fd bd bd 19 22 44 be 51 46 3a be
       -0.23022757 -0.09276807 -0.19153632 -0.18190886
0001b0 1d b9 1c bd 63 c7 53 be 8d bc ef bd 7a 21 11 be
       -0.038262475 -0.20681529 -0.11705885 -0.14172927
0001c0 c7 f5 4b be 90 02 30 be 84 25 3f be 8e 88 5c be
       -0.19917975 -0.17188478 -0.18666655 -0.21536466
0001d0 22 67 80 be 2c 7f ff bd 4c 49 46 be b3 a6 4d be
       -0.25078684 -0.12475428 -0.19363898 -0.20083122
0001e0 f0 2b 96 be 5e 63 1e be 46 40 43 be 6e c9 52 be
       -0.29330397 -0.15467593 -0.19067487 -0.20584652
0001f0 64 46 07 be 78 21 4b be ea 40 2f bd d0 ff 48 be
       -0.13210446 -0.19836986 -0.042786516 -0.19628835

bn1.running_mean f4 [128]
000000 4f 66 f2 3f a2 50 7c 3f 7f 9d cd 3e 1b 5b 57 3e
       1.8937472 0.98560536 0.40159222 0.21030848
000010 37 2f b6 3f 82 f4 83 be 4c dd ce 3f 89 8f d9 3f
       1.4233159 -0.25772482 1.6161284 1.6996928
000020 04 f1 f7 3f 46 e2 19 3f e8 56 0e 40 a0 7e 6e 3e
       1.9370427 0.6011089 2.2240543 0.23290491
000030 8f a4 09 40 78 18 58 bf d6 ae 1d 3f cf 8c 16 40
       2.1506689 -0.84412336 0.61594903 2.3523443
000040 be 78 90 3e 24 b7 90 3f fe 54 09 40 63 b9 a1 be
       0.2821712 1.130589 2.1458125 -0.3158675
000050 4d a8 b0 3f a7 13 0a bf de eb 6a 3f 26 57 78 3f
       1.3801361 -0.5393624 0.91766155 0.9700798
000060 7c 8a 9a be 48 ce aa 3f 27 f3 b4 3f fc 35 6f 3f
       -0.3018378 1.3344202 1.4136704 0.9344175
000070 0f e7 cc bd 3f 1d 26 40 70 d8 a9 3e 0c 37 7d bf
       -0.100050084 2.595535 0.3317294 -0.9891212
000080 4e 37 88 be 0a de 8a 3f 46 47 da 3d b1 05 82 3f
       -0.26604694 1.0849011 0.106581256 1.0157987
000090 3f be 82 3f 7d cb 8f 3f d9 4d 0e bf 0a 8c 64 bf
       1.0214309 1.1233975 -0.55587536 -0.8927618
0000a0 a4 ca 87 bd d8 66 11 40 b8 7e be 3f 13 da 83 3f
       -0.066304475 2.271902 1.4882421 1.0300926
0000b0 45 f1 c9 3f 72 5f e0 3f 7e 5d 3d 3f 05 a1 37 be
       1.5776755 1.7529128 0.7397078 -0.17932518
0000c0 19 b8 00 40 ae 67 47 bc 41 d5 10 bf 87 12 2d 3f
       2.0112364 -0.012170715 -0.565754 0.67606395
0000d0 62 cb 1a 40 fd e0 d5 be 69 f5 d0 3f 7f 76 e6 3f
       2.4186635 -0.41773215 1.6324893 1.8004912
0000e0 d8 c4 7e 3f cf 85 1d 40 b1 21 c7 3f 8d ac 02 c0
       0.9951911 2.461292 1.5557157 -2.0417817
0000f0 80 66 4e 3e 97 2b e2 3f 9f b0 2e bf 29 82 db be
       0.20156288 1.7669553 -0.6823825 -0.42872742
000100 cc e9 65 3f 51 a7 1e 3f 8b c8 f2 be 1e b0 c0 3f
       0.8980987 0.61974055 -0.47418627 1.5053747
000110 e9 20 14 3f 10 d3 1e 40 a7 d3 e9 3e a9 f0 07 40
       0.57862717 2.4816322 0.4566929 2.1240637
000120 63 5f 22 40 32 74 1d 3f a9 57 7c 3f 5f da e7 3f
       2.537072 0.61505425 0.9857126 1.8113517
000130 0f e2 d3 3f ee e9 60 3f be b1 ad bf 2c 9f a3 be
       1.6553363 0.8785695 -1.3569868 -0.31957376
000140 3d ae ab 3e 3a 57 0f c0 66 64 fb 3f ba 17 21 bf
       0.3353137 -2.239699 1.9640014 -0.6292683
000150 c1 9c 03 3d e7 95 c5 3f 83 c3 dd 3f e9 5c 7c bf
       0.032131914 1.5436372 1.732529 -0.9857927
000160 90 d8 a5 bf 73 8e e2 3f 16 16 9d 3f 5c ba 45 3e
       -1.2956715 1.7699722 1.2272365 0.19309372
000170 68 6a 29 40 8f b2 20 be 86 72 75 bf 19 04 7f 3f
       2.6471195 -0.15693115 -0.95877874 0.9961563
000180 e6 bd 5c 3f cb b7 87 bf b2 b6 39 3e ff b2 91 be
       0.8622726 -1.0602964 0.18136099 -0.28456876
000190 a6 67 40 40 5e 52 3c be 9a 32 13 3f a0 c4 56 3f
       3.0063262 -0.18390796 0.57499087 0.83893776
0001a0 aa 9b 32 3f e2 0c 12 40 78 56 75 bf c2 5a 18 40
       0.69768775 2.2820363 -0.95835066 2.3805394
0001b0 54 80 8f 3f 1d d7 b8 3f 44 21 9b 3f a7 25 b1 3f
       1.1211038 1.4440647 1.2119527 1.3839616
0001c0 fe 4a 80 3e 41 6b 30 40 94 52 d8 bd 14 52 98 3f
       0.25057214 2.7565463 -0.105626255 1.1900048
0001d0 69 4e c2 3f 22 78 a7 3f 10 6b c7 3f f5 8d 27 3f
       1.5180179 1.3083537 1.5579548 0.65450984
0001e0 01 1a bd 3f fb 84 8b 3e 67 44 36 3f 3f 37 b6 3e
       1.4773561 0.27249894 0.71198124 0.35589024
0001f0 9b 0c dd bf 69 6b 0a bf 06 36 c0 3f 9e eb ef 3f
       -1.7269472 -0.54070145 1.5016487 1.874378

bn1.running_var f4 [128]
000000 c3 81 2c 40 8a 82 10 40 11 81 1d 40 92 18 4e 40
       2.69542 2.2579675 2.4610026 3.2202497
000010 b3 63 20 40 23 63 fa 3f 46 80 29 40 fa cf 25 40
       2.5060852 1.9561504 2.6484542 2.590819
000020 39 01 7e 40 7c ce ed 3f 19 a1 33 40 e9 80 e4 3f
       3.9688246 1.8578639 2.8067076 1.785184
000030 d2 f9 5c 40 c0 1b 4b 40 25 6a 04 40 56 88 07 40
       3.4527478 3.1735687 2.0689785 2.1176963
000040 13 43 ed 3f e9 e5 f1 3f fc 3b f6 3f 9c 77 8f 40
       1.8536094 1.8898288 1.9237056 4.4833508
000050 91 cb 06 40 d4 a7 0a 40 76 2c 26 40 fa d9 32 40
       2.1061747 2.1664934 2.5964637 2.7945542
000060 9f 68 21 40 37 f0 47 40 c3 11 e1 3f 7b cc f7 3f
       2.5220106 3.1240366 1.7583545 1.9359277
000070 71 b3 bb 3f bd 7f 3d 40 79 a7 20 40 9c b7 fa 3f
       1.4664136 2.9609215 2.5102217 1.9587283
000080 4a 95 24 40 2b fb e9 3f a3 cf 1c 40 59 cc 05 40
       2.571612 1.8279775 2.4501731 2.0905974
000090 49 03 31 40 08 82 fb 3f db 47 89 40 5f ed ae 3f
       2.7658255 1.9649057 4.2900214 1.366619
0000a0 d4 32 18 40 c0 24 35 40 60 f4 71 40 34 99 6d 40
       2.3781023 2.830368 3.7805405 3.7124758
0000b0 b0 09 37 40 89 92 29 40 26 45 fb 3f 2c 7f 00 40
       2.8599663 2.6495688 1.9630477 2.007762
0000c0 68 f2 13 40 4a 6c b1 3f 67 d0 0b 40 c2 0d 2e 40
       2.3116703 1.3861172 2.1845949 2.7195897
0000d0 be 2b 5d 40 12 c8 2a 40 6e 10 c3 3f 56 21 1a 40
       3.4557948 2.6684613 1.5239389 2.4082847
0000e0 17 65 45 40 9e ec 4f 40 56 4f bf 3f 0e df 11 40
       3.084295 3.248817 1.4946086 2.2792392
0000f0 bd 6e b2 3f e0 2a 14 40 96 bb 26 40 07 0c 19 40
       1.3940045 2.315117 2.6051993 2.391359
000100 60 42 05 40 d4 0e 38 40 82 94 02 40 d3 60 c9 3f
       2.0821762 2.875905 2.0403142 1.5732673
000110 9b 62 01 40 ad 33 fb 3f 7f 67 0c 40 b0 77 3f 40
       2.0216434 1.9625145 2.193817 2.9916801
000120 4a 4a 18 40 28 18 41 40 0d e2 05 40 32 9a 2e 40
       2.3795342 3.0170994 2.091922 2.7281613
000130 c3 aa 59 40 f4 40 4a 40 9f 4f 37 40 84 60 1a 40
       3.4010475 3.1602144 2.8642347 2.4121408
000140 8b 94 85 40 f9 bc 7d 40 4a 5a 46 40 62 de fe 3f
       4.1743827 3.964659 3.0992608 1.9911616
000150 e3 3e 7a 40 83 7a 2c 40 af 41 0c 40 27 6f 07 40
       3.9100883 2.6949775 2.191509 2.1161592
000160 21 56 0a 40 c2 36 04 40 2f 49 22 40 f4 ea cd 3f
       2.161507 2.0658422 2.5357168 1.6087327
000170 be a1 1e 40 64 78 18 40 40 d4 2d 40 77 b4 c7 3f
       2.478622 2.382348 2.7160797 1.5601948
000180 76 47 b9 3f cd 69 76 40 11 0d 16 40 aa 2e 24 40
       1.4474933 3.8502076 2.3445475 2.5653481
000190 0e 55 62 40 92 df 14 40 e6 22 08 40 c6 82 ea 3f
       3.5364413 2.3261456 2.12713 1.8321159
0001a0 1d f3 f9 3f de cd 39 40 88 13 61 40 72 da 00 40
       1.9527317 2.9031901 3.516817 2.0133328
0001b0 25 c7 c5 3f 1a 81 16 40 1e 25 17 40 77 db 42 40
       1.5451399 2.3516297 2.3616405 3.044645
0001c0 66 74 12 40 51 25 6e 40 fc 51 c5 3f e1 b7 87 40
       2.2883544 3.7210276 1.5415645 4.241196
0001d0 fa 97 36 40 59 db e6 3f 73 34 40 40 57 f8 0f 40
       2.853026 1.803569 3.0032012 2.2495325
0001e0 5c 74 18 40 44 26 11 40 66 91 d9 3f 21 45 05 40
       2.382102 2.2679605 1.6997497 2.0823443
0001f0 d8 84 09 40 fb bf 30 40 e1 37 38 40 88 bd 0b 40
       2.1487331 2.7617176 2.8784106 2.183443

fc2.weight f4 [64, 128]
000000 28 61 09 3d 78 85 e0 bd ce a1 d1 3d e0 a8 36 3d
       0.03353992 -0.10962957 0.1023594 0.044594646
000010 26 10 55 be 93 ae 6e bd a0 03 87 bc 65 77 83 bd
       -0.20806941 -0.058271956 -0.01648122 -0.06419257
000020 8d cc d1 bd 62 e3 57 bd 14 a9 7a 3d e5 54 1e 3d
       -0.10244093 -0.052707084 0.0611964 0.03865518
000030 8e 95 8e bd 36 30 b1 3d 43 82 88 bd e8 9c 11 3d
       -0.06962119 0.08651774 -0.066654705 0.035550028
000040 38 7e df 3a bb 54 db 3d 7d df 22 bb 21 09 b6 bd
       0.0017051166 0.107095204 -0.0024852448 -0.0888846
000050 0e 0a e3 3c 9e 7e dd 3c 21 ea a3 3d 51 e1 f8 3b
       0.027714755 0.027037915 0.08003641 0.007595219
000060 7c 0d 33 bd bb ec 88 bd 83 01 9c bd e8 70 26 bd
       -0.04371403 -0.06685778 -0.07617476 -0.04063502
000070 40 5d f3 bd f3 29 5c be 2c 94 47 bd c7 fc 24 bd
       -0.118830204 -0.21500377 -0.048725292 -0.04028013
000080 b5 57 bd bd 71 69 8d 3c da 4f 42 3d 90 f9 00 3e
       -0.092452444 0.017262192 0.047439434 0.125952
000090 28 7f 03 bd a4 cc 41 bd 1d 9d 4a bc fa c2 b8 bd
       -0.032103688 -0.0473143 -0.01236656 -0.09021564
0000a0 50 0e b0 3d b6 67 b8 bd 17 65 b1 3b 4d a7 b7 bc
       0.0859648 -0.09004156 0.005413662 -0.022418642
0000b0 68 4d ee bd 14 06 f2 bc 13 73 f1 3c b7 7e 8d be
       -0.11635858 -0.029543914 0.029473817 -0.27635738
0000c0 0a 4d ca 3c 0c 6c 48 bd 07 10 cd 3d 81 d9 aa bd
       0.024694938 -0.048931167 0.100128226 -0.08342267
0000d0 cc a6 10 bd c2 e9 4f bc 2f d8 c7 3d 15 2a 92 3d
       -0.03531532 -0.01269001 0.097580306 0.07136933
0000e0 be 04 76 bd 0a 02 87 be 31 31 0e be bd 6c 57 bd
       -0.060063116 -0.26368743 -0.13885953 -0.052593935
0000f0 b4 86 07 bd ad b1 81 3d 23 86 04 3d a2 58 16 bd
       -0.033087447 0.06332717 0.032354485 -0.03670562
000100 93 4f 58 bc fd df c4 3d 46 0a 0b be fa d7 1c bd
       -0.013202566 0.09613035 -0.13578138 -0.03829191
000110 b0 ef fd bc b2 69 14 3d 58 60 ef bb 89 a8 0c be
       -0.030998081 0.03623361 -0.0073051862 -0.13736166
000120 64 20 c4 3b a0 bf 44 3d db 64 06 3d 39 c8 48 3d
       0.0059853066 0.04803431 0.032811027 0.049019072
000130 c3 68 db 3d d5 63 91 3d 1f 3b 1f 3d 35 26 39 bc
       0.10713341 0.070991196 0.03887474 -0.011300613
000140 ef d0 d4 3d 6e 57 28 3d c6 9b e9 bd e5 ec 59 bd
       0.103914134 0.041099004 -0.114066646 -0.053204436
000150 4a b8 32 3e 84 08 06 3d fc 4c c7 bc 5c 1a e3 3b
       0.17453113 0.032722965 -0.024328701 0.0069306325
000160 37 ad 9a bd d2 77 a8 bd 18 74 eb 3c 1d 92 88 3d
       -0.07552569 -0.08225979 0.028741881 0.06668494
000170 a2 21 14 bd c4 33 00 3d a3 b0 8e 3d 87 22 15 be
       -0.036164887 0.031299368 0.069672845 -0.14563952
000180 44 1c 86 bc 42 71 4f bd eb 8c 48 bd bf 0f b9 3d
       -0.0163709 -0.05064512 -0.048962515 0.090362065
000190 64 27 af bd 8e 1b 1b bd 6f 66 8e 3c aa 78 63 3d
       -0.08552435 -0.037868075 0.017382829 0.055534996
0001a0 51 06 e3 bc c0 f8 2d be cf 8c 30 bd b5 e9 4d bd
       -0.027712973 -0.16989422 -0.043103036 -0.05027171
0001b0 ea 89 7f 3c 7a 77 73 bd 89 55 0a be 79 6c 44 bd
       0.015596846 -0.059440114 -0.13509192 -0.04795501
0001c0 ae f7 d3 3b 9b af f3 bd b0 5e a7 bd ac d1 b8 bd
       0.0064687347 -0.118987285 -0.08172357 -0.09024367
0001d0 94 67 bf 3d 12 61 fa bd a9 ed 06 3d f2 2f 72 3d
       0.09345928 -0.12225546 0.032941494 0.059127755
0001e0 fc 89 f5 bd 29 0e 9a 3c 36 1c eb bd 63 ed 10 bb
       -0.11989209 0.01880558 -0.1147999 -0.002211415
0001f0 1e 17 99 bd 00 ac 1d 3c 7c 5a 4b 3c 72 82 76 3d
       -0.074751124 0.0096235275 0.01241171 0.060182996
000200 23 0c ec bd 53 78 92 bd a3 ce f7 bc 88 28 a5 bb
       -0.115257524 -0.07151856 -0.0302499 -0.005040232
000210 b7 df 07 be 64 7a 9a bb d4 b9 24 be da b7 e2 3c
       -0.13268934 -0.004714297 -0.16086513 0.027675558
000220 3a e9 d7 bd 1a f5 93 3c 3a bc d0 3d 6b fa 3a 3c
       -0.10542531 0.01806121 0.10192151 0.011412243
000230 df ea e4 bc 1c 46 4e bc b1 49 ee bb 9c 8c 25 bd
       -0.027944027 -0.012589958 -0.0072719683 -0.0404173
000240 65 e8 ea bc 4d 27 1b be f8 eb ad bc df 7e d6 bd
       -0.028675267 -0.15151711 -0.021230683 -0.104734175
000250 e1 0e c4 3d 8d 08 c8 bb a4 88 64 bd 15 48 ff bd
       0.095731504 -0.006104535 -0.055794373 -0.124649204
000260 a1 53 15 3d dc a4 28 be 97 4f a3 bc 18 0f 9f bd
       0.036456708 -0.16469139 -0.019935412 -0.07766551
000270 d7 c8 3d 3d cb f0 42 bc 14 69 c3 bd 81 9d 8b bd
       0.046334114 -0.01189823 -0.095415264 -0.06817151
000280 7e 80 4a 3d d1 8a 91 3d 91 22 51 bd 2b c4 8d 3d
       0.049438946 0.07106555 -0.051058356 0.06922182
000290 69 49 ff bb 17 f2 be bc 3c 41 99 bc 98 77 32 3d
       -0.0077907336 -0.023308797 -0.018707864 0.043571085
0002a0 de bd d0 3d 30 7e c7 3d a8 99 98 bd 19 5a 41 3e
       0.10192464 0.09740865 -0.074511826 0.18882026
0002b0 08 b2 06 3b 36 95 24 3e bd 79 0c 3c a8 e1 7d 3c
       0.0020552892 0.16072544 0.008573947 0.015495695
0002c0 15 83 a5 3d 84 81 2f bd c8 87 0f bd 39 22 80 3c
       0.080816425 -0.042848125 -0.0350416 0.015641319
0002d0 89 9d b9 bd 65 22 03 bb 61 f7 b1 3c 98 43 17 be
       -0.090632506 -0.0020009514 0.021724405 -0.14771879
0002e0 47 dd 80 bc d0 53 a8 3c 3a 95 c3 3b ed 27 74 3d
       -0.015730513 0.020547777 0.005968717 0.05960839
0002f0 a7 25 0d bd 95 9a d7 3c db 04 ab bc 5a c5 c0 bd
       -0.034459736 0.026318828 -0.020876339 -0.09412642
000300 43 ce 95 bc 35 4d f0 bc 95 9e 94 bc 8f 0d 5c 3c
       -0.01828683 -0.02933369 -0.018142024 0.013430967
000310 a1 9c 5e 3c 3a 5a 12 be ea 60 c9 bd 53 d1 2c 3d
       0.013587148 -0.14292231 -0.09832938 0.042191815
000320 e5 d4 5b 3d 2d d4 6b bd 2c 10 82 bc fe 5b ae bd
       0.05366983 -0.057575393 -0.015876852 -0.0851364
000330 49 43 cd 3d 84 83 90 3c 0e 8e 5e bd c7 12 dc bb
       0.10022599 0.017640837 -0.054334693 -0.0067161056
000340 d2 31 d6 3d 56 78 b1 3d e0 4a 9b 3c 23 15 ba 3d
       0.10458721 0.086655304 0.018956602 0.09086063
000350 6d ce 95 bb 80 a0 04 3e cb 6a a9 bd 12 28 69 b7
       -0.004571727 0.12951851 -0.08272322 -1.3897212e-05
000360 63 78 d9 3b a1 22 e8 bd a2 64 25 3d 4f 1f c4 3d
       0.0066366657 -0.1133473 0.040379174 0.09576284
000370 06 f9 10 bd 1d b2 3f bd 1c 9a 02 bb 60 29 a1 bc
       -0.035393737 -0.04680072 -0.0019928282 -0.01967305
000380 c5 a5 e6 bb 34 cb 35 3d 0d f5 3e 3d 42 e5 bc 3d
       -0.0070388042 0.044383243 0.046620417 0.09223415
000390 fb 45 d0 bc b3 fe c2 bd a6 d7 bb bd c3 29 a2 3d
       -0.025423994 -0.09521236 -0.09171991 0.07918122
0003a0 a6 14 15 bc 9b f3 1d 3d d8 f5 6c 3d 7b 26 bb 3d
       -0.009099161 0.0385624 0.057851642 0.09138199
0003b0 a8 28 a3 3c 40 4b 6f bc 48 c5 9e 3d 07 c4 c4 bd
       0.019916847 -0.014605343 0.07752472 -0.09607702
0003c0 54 a2 86 bd 94 d7 01 3c 90 bd 89 bd e0 d7 88 bd
       -0.065739304 0.007924933 -0.06725609 -0.066818
0003d0 cb de b1 bd 71 2e 29 3d d2 ac 0b 3e 9e 34 59 bd
       -0.086850725 0.041304056 0.13640144 -0.053028695
0003e0 27 22 35 be 4e 06 04 3d 5c 5a 55 3d 0d ad 34 bd
       -0.1768881 0.032232575 0.052088127 -0.044110347
0003f0 7b e7 2d be 40 c8 b9 3c c7 eb 85 3d 71 87 02 bd
       -0.16982834 0.022678494 0.065391116 -0.03186745

fc2.bias f4 [64]
000000 8b 65 18 33 0b a8 85 33 10 9f fc b2 13 49 76 33
       3.548261e-08 6.223862e-08 -2.9408994e-08 5.73428e-08
000010 fe 9b 17 b2 4d 92 0a 33 fd e0 f1 32 18 56 7e b3
       -8.824825e-09 3.226369e-08 2.8158405e-08 -5.9217285e-08
000020 90 45 9d 32 c4 a8 a6 33 62 1e 8a 32 57 d1 dc 31
       1.8308839e-08 7.760676e-08 1.6079131e-08 6.426642e-09
000030 d5 64 08 33 73 0b 77 32 d7 b7 f8 31 10 9a fe b2
       3.1756674e-08 1.43798955e-08 7.23865e-09 -2.9639551e-08
000040 97 4c 6a b3 14 03 1f 33 f7 88 20 33 9e f2 16 33
       -5.455203e-08 3.7022872e-08 3.7377472e-08 3.5145256e-08
000050 28 42 d2 32 e6 49 d3 31 df 19 49 33 dc 14 1b 33
       2.4477302e-08 6.1493095e-09 4.682249e-08 3.610772e-08
000060 98 fd f2 b1 0d cb cf 32 bb eb 25 33 23 f5 7d 32
       -7.0719572e-09 2.4190308e-08 3.8631452e-08 1.4782276e-08
000070 05 83 35 33 3e af 0f b3 03 f6 af 32 bc 52 2d 33
       4.2261508e-08 -3.3454164e-08 2.0484554e-08 4.0354948e-08
000080 3f 6b f3 b1 96 d8 d5 31 7c 18 f5 32 66 21 0e b3
       -7.0844233e-09 6.223739e-09 2.8532888e-08 -3.3092327e-08
000090 2b 6c 3e b3 38 45 c9 32 ee 8d ba 32 f9 b3 3c 32
       -4.43362e-08 2.3430957e-08 2.1717792e-08 1.0983961e-08
0000a0 4b 13 4d 33 b5 39 97 32 0d 46 0d 32 0e 91 08 33
       4.774783e-08 1.7604956e-08 8.223208e-09 3.1796894e-08
0000b0 6b cf 8c b2 03 9c a9 b2 a5 89 1e b3 da b6 45 32
       -1.6392468e-08 -1.9745135e-08 -3.691243e-08 1.1508485e-08
0000c0 44 d8 ef 32 0b 78 11 b3 03 92 01 34 9c 60 c9 b2
       2.7921608e-08 -3.386962e-08 1.206718e-07 -2.3443413e-08
0000d0 f7 d4 08 34 b1 29 73 32 7b 3e 05 33 85 b9 d7 b1
       1.2743463e-07 1.4153941e-08 3.10233e-08 -6.2784147e-09
0000e0 23 b2 0e 33 b5 f2 05 31 ce 54 09 b3 68 31 a4 b2
       3.3223966e-08 1.949201e-09 -3.1974928e-08 -1.911458e-08
0000f0 a9 e2 7b 32 dc c4 ad b0 50 ff e9 32 c9 8d 0a 33
       1.4661659e-08 -1.2643357e-09 2.7240873e-08 3.225958e-08

bn2.weight f4 [64]
000000 cc c7 3e 3f 17 02 2a 3f af a1 38 3f e8 48 45 3f
       0.74523616 0.6640944 0.7212171 0.7706437
000010 1e fe 2b 3f bc b9 25 3f 55 88 16 3f 88 c5 48 3f
       0.6718463 0.64736533 0.58801776 0.7842641
000020 84 38 25 3f 73 41 26 3f eb fb 0a 3f 55 11 57 3f
       0.6453936 0.6494362 0.54290646 0.8401082
000030 23 85 59 3f 90 1a 33 3f 31 f4 52 3f 13 92 3c 3f
       0.84968776 0.69962406 0.82403857 0.7366039
000040 e3 eb 50 3f 0e 1e 3f 3f fd c0 30 3f 28 59 31 3f
       0.81609935 0.74655235 0.69044477 0.69276667
000050 6b a5 3e 3f 26 ef 41 3f 76 76 57 3f 6a 7e 22 3f
       0.7447116 0.75755537 0.8416513 0.6347414
000060 19 75 27 3f 2c be 46 3f fd 7a 2b 3f 45 b5 35 3f
       0.6541305 0.7763393 0.6698454 0.7097972
000070 38 a4 51 3f 56 59 41 3f d3 83 49 3f 64 43 5c 3f
       0.818912 0.7552694 0.7871677 0.8604033
000080 59 e1 23 3f f5 d7 22 3f bf e7 37 3f e4 fe 35 3f
       0.6401573 0.63610774 0.7183799 0.7109206
000090 48 9c 2a 3f 5d a7 42 3f ec 5f 36 3f f2 a2 3f 3f
       0.66644716 0.76036626 0.71240115 0.7485801
0000a0 ee 97 34 3f 26 46 2c 3f 2c a5 13 3f dd 40 4b 3f
       0.70544326 0.6729454 0.5767391 0.7939585
0000b0 b1 08 46 3f 00 81 3d 3f 31 3b 56 3f 71 1e 43 3f
       0.7735701 0.74024963 0.8368407 0.76218325
0000c0 43 a0 42 3f df 39 2a 3f 38 92 3a 3f 01 8a 30 3f
       0.7602579 0.66494554 0.7287936 0.6896058
0000d0 e2 37 6c 3f a5 4c 1d 3f e7 89 56 3f 6d 5a 33 3f
       0.9227277 0.61445075 0.8380417 0.70059854
0000e0 32 7f 2e 3f da a5 42 3f 9f bf 29 3f dd 41 3e 3f
       0.68162835 0.7603432 0.66308016 0.7431925
0000f0 a2 ad 35 3f ea c3 1e 3f e4 aa 44 3f 2c b4 34 3f
       0.7096807 0.6201769 0.7682326 0.7058742

bn2.bias f4 [64]
000000 ce 1f f6 bb 17 21 bf bd d9 06 0a be eb ce 96 bd
       -0.0075111156 -0.09332483 -0.13479175 -0.07363685
000010 9b 42 e4 3b a8 ac 9d bd b2 43 4f bc 53 38 8b be
       0.006965948 -0.07698947 -0.012650417 -0.2719141
000020 a1 de b3 bd 37 d2 47 3b b3 f3 ab 3d 97 4d 73 be
       -0.087826975 0.0030490288 0.08396091 -0.23760067
000030 2e 4b 0b be 6c 6a a4 bd bd e9 55 be 4f 9f 3d bd
       -0.13602898 -0.08028111 -0.20889945 -0.046294507
000040 c3 50 46 bd 47 c5 65 be f7 03 31 bd 13 ca 0a bd
       -0.048416864 -0.22438537 -0.04321667 -0.03388412
000050 9c 4e e7 bd 99 df f4 bd a5 96 bb bd 5c 6a 8d bd
       -0.112942904 -0.1195671 -0.091595925 -0.06905052
000060 b0 84 fe 3c 54 d0 b7 bd 6a 79 74 bd 54 12 36 bc
       0.03106913 -0.08975282 -0.059686102 -0.011112768
000070 35 9c 55 3c 82 54 2c be 22 f9 35 bd f3 58 a9 bd
       0.013037731 -0.16829112 -0.044427045 -0.08268919
000080 94 97 5a bc 7a c4 d0 bc 85 c3 55 bc 00 6d 92 bd
       -0.013341803 -0.025484312 -0.013047104 -0.07149696
000090 a6 de a7 bd ff 67 92 bd cb 5f 4a bd 6b 8f 2c be
       -0.08196764 -0.07148742 -0.04940776 -0.16851585
0000a0 70 62 d4 bd 16 05 c9 bd ae 41 6c bd ee a5 02 be
       -0.10370338 -0.09815423 -0.057679825 -0.1275861
0000b0 15 28 4a be b7 86 76 bd d1 95 53 be 85 1d 0e be
       -0.19741853 -0.060187068 -0.20662619 -0.13878448
0000c0 c0 ad b4 3d c0 34 d4 bd e6 ab ff 3c 95 d5 f3 bc
       0.08822203 -0.10361624 0.031209897 -0.02976493
0000d0 d0 ce 3d be be d9 34 bd 8b 28 0a be 7d a4 83 bc
       -0.18535924 -0.044152968 -0.13492028 -0.016069645
0000e0 ff 0b 0d 3d b4 c8 26 bd f8 dc c9 bd cf ce e1 bd
       0.03443527 -0.04071875 -0.098565996 -0.11025774
0000f0 09 66 0e bb 08 aa 68 bd 16 17 a2 bd 63 6a 1b bc
       -0.0021728298 -0.05680278 -0.079145595 -0.009485814

bn2.running_mean f4 [64]
000000 e5 34 01 bf 9a 4f 82 be 16 c6 a6 3e f9 56 dd be
       -0.50471336 -0.25451356 0.32573003 -0.43230417
000010 cd ab 51 be bb e7 9a bd ea d1 0d 3e 40 1d 55 bf
       -0.20475693 -0.0756373 0.13849607 -0.83247757
000020 5f 8a 0a bf ca 49 f6 be c5 81 23 be a4 9a 53 bf
       -0.5411739 -0.48103172 -0.15967472 -0.8265784
000030 18 13 ec be 67 08 51 bf 26 77 a1 bd 4e 2e 82 be
       -0.46108317 -0.81653446 -0.07884054 -0.25425953
000040 a6 55 b9 be bc 17 1a bf 4f 3b 88 be c0 b0 74 bd
       -0.36198157 -0.60192466 -0.2660775 -0.059738874
000050 30 55 2a bf b7 f8 4f be 59 b0 17 bf 5c 0c f9 be
       -0.66536236 -0.20309721 -0.5925346 -0.48642242
000060 6c 7d cf 3d 82 bb 16 bf 26 0f b5 be 31 77 16 be
       0.10131344 -0.58879864 -0.3536312 -0.14693905
000070 c3 ed 3e bf fe 35 6f be 0d fc d9 3d f2 37 3c bf
       -0.74581546 -0.2336044 0.10643778 -0.73522866
000080 c1 92 57 3e b3 d4 ee bd 6b 4f 82 be a0 40 88 bd
       0.21052076 -0.11661663 -0.25451216 -0.06652951
000090 bd 0f 78 3d a8 86 10 be 7f 9a a8 be 73 09 db bd
       0.060561884 -0.14113867 -0.3293037 -0.10695162
0000a0 b5 89 de 3d 04 c0 39 be bb 14 7b be f5 3c 36 be
       0.10866109 -0.18139654 -0.24519627 -0.17796691
0000b0 6f dd 5c bf 8a 31 7a be ca ee 6e be 76 11 04 bf
       -0.8627538 -0.2443296 -0.23333278 -0.51589143
0000c0 b9 2b 20 be 50 b2 b8 be a4 80 1d be 14 df 44 be
       -0.15641679 -0.36073542 -0.15381104 -0.19225723
0000d0 eb 2d f2 bd 54 af c3 bd fc 50 97 3d ea dc 85 3d
       -0.118251644 -0.095549256 0.073884934 0.06536277
0000e0 09 3b 2b bf 7c 83 3c bf e3 fb 1a bf c9 21 96 3d
       -0.66886955 -0.7363813 -0.605406 0.07330663
0000f0 5f 73 e7 be 88 d5 02 bf d2 dd 8d be 65 50 d5 be
       -0.4520521 -0.5110707 -0.27708298 -0.416629

bn2.running_var f4 [64]
000000 72 d8 27 3f a5 0b cd 3e be 92 b9 3e cb 9f c5 3e
       0.65564644 0.40047947 0.36244768 0.38598475
000010 45 b1 dd 3e 8c 4f be 3e d1 9b 9d 3e 63 17 9f 3e
       0.43299308 0.37170064 0.3078294 0.3107253
000020 f9 30 87 3e 79 13 dc 3e 0e fd e0 3e c4 d9 ea 3e
       0.2640455 0.42983606 0.43943065 0.45869267
000030 ea a8 e4 3e f8 bc c8 3e f2 fc ca 3e d8 09 bc 3e
       0.4466012 0.39206672 0.39646107 0.3672626
000040 4a dd f8 3e 61 61 b4 3e 13 1d e1 3e 0f 61 a4 3e
       0.4860633 0.35230544 0.43967494 0.321053
000050 ef 7a a9 3e a3 92 c9 3e bc 24 dd 3e 4e 99 da 3e
       0.33101603 0.39369687 0.4319209 0.42695087
000060 83 ae 07 3f be 30 d1 3e 73 03 b4 3e 71 73 e4 3e
       0.5300066 0.408575 0.35158882 0.44619325
000070 80 7c cf 3e c1 9b 05 3f fa f6 06 3f b4 d5 29 3f
       0.40524673 0.52190787 0.52720606 0.6634171
000080 c9 01 ae 3e 3e a5 c1 3e 3f c8 a5 3e 6e 8f bb 3e
       0.33985737 0.37821382 0.32379338 0.36632866
000090 da a2 99 3e a7 a5 02 3f 8e ff cd 3e f9 dc ea 3e
       0.30007058 0.51034015 0.40234035 0.45871714
0000a0 ef 80 f8 3e 59 55 a4 3e 18 ab 94 3e 09 9a e6 3e
       0.4853587 0.32096365 0.29036784 0.45039394
0000b0 81 8f 05 3f 80 0e 2a 3f 75 7b cd 3e 77 3b db 3e
       0.52172095 0.66428375 0.40133253 0.42818806
0000c0 14 89 16 3f db ce d1 3e 24 e5 f0 3e 2d 69 1c 3f
       0.58802915 0.4097813 0.4704982 0.61097986
0000d0 e7 5e c4 3e f9 6b d1 3e e6 fd 03 3f 1f 7c e9 3e
       0.38353655 0.4090269 0.51559293 0.4560251
0000e0 b2 f1 09 3f 82 9e 03 3f 26 d7 e4 3e 2f eb 9c 3e
       0.5388442 0.5141374 0.44695395 0.3064818
0000f0 c6 b5 c7 3e b0 fe 08 3f 2f a0 0a 3f 35 25 f3 3e
       0.3900587 0.5351362 0.5415067 0.47489324

fc3.weight f4 [32, 64]
000000 dc d6 38 3d df 61 e5 3d e9 d0 36 bb 78 ae 39 bd
       0.04512678 0.11200308 -0.0027895516 -0.045332402
000010 4d bc 1b 3e 77 78 87 3b d0 01 02 3d 43 a3 e1 3d
       0.1520855 0.0041342336 0.03174001 0.11017468
000020 26 05 e0 3d e6 2c af 3d 94 fa 95 3c ec b0 ce bc
       0.10938482 0.085534856 0.018307962 -0.025230847
000030 c1 d7 22 be 8d 41 83 3d e5 52 ed 3b 76 d2 83 be
       -0.15902616 0.06408987 0.007242548 -0.25746506
000040 9d e1 f8 3b 35 1c 95 bd 17 5b 5a 3d dc c2 cf bd
       0.0075952546 -0.07280771 0.053309526 -0.10144588
000050 60 37 2f bd 92 2c 3a 3d 09 2a 40 bb 27 98 44 bd
       -0.04277742 0.04545266 -0.002932193 -0.047996666
000060 97 bb 23 be 5c 60 bd bc 8a 88 23 3e 3e 0b 5a bd
       -0.15989529 -0.023117237 0.15970054 -0.053233378
000070 49 38 cf bd ed b7 52 3d 09 0e a7 bd 5e dc c0 3d
       -0.101181574 0.051444937 -0.08156974 0.09417032
000080 77 81 21 3d 71 92 76 bd 90 5f de 3b b8 7a 4d bd
       0.039430108 -0.06019825 0.0067862943 -0.05016586
000090 e4 9a 02 3e 7e ea b9 bc e1 c5 3d bd 36 0c a4 bd
       0.12754399 -0.022694822 -0.04633129 -0.080101416
0000a0 7d 2f 92 bd e9 84 85 bd 32 40 5c 3d 3e 7b 76 bd
       -0.07137964 -0.06519491 0.05377216 -0.060176127
0000b0 bc ea 20 be dd 20 ec 3d 7d e1 ba 3c 64 06 7b bd
       -0.15714544 0.11529706 0.0228126 -0.06128539
0000c0 b1 ce b8 3c 3f 02 a3 bd e5 f4 40 3c be 20 9f 3d
       0.022559496 -0.07959413 0.011777137 0.07769917
0000d0 b5 e2 a5 3c 46 71 c1 bc 81 52 44 bd 50 a3 71 3c
       0.020249704 -0.023613583 -0.047930244 0.014748409
0000e0 86 b3 a5 3c 12 3b 0c be 6c 2a df bd ee 5e 09 3e
       0.020227205 -0.13694409 -0.10896763 0.13415119
0000f0 07 c3 6e 3c 97 e3 bf bd 67 a8 03 3e af be ec bd
       0.014572865 -0.09369581 0.12857209 -0.115598075
000100 3e 5a e5 ba 49 87 bc 3d 38 e3 1e bd 5b b5 5b bd
       -0.0017498208 0.09205491 -0.03879091 -0.05363975
000110 2b db d3 bd 0d a8 2a 3d ef 62 1a be 1e bb 9e 3d
       -0.10344537 0.041664172 -0.15076803 0.077505335
000120 0b b8 3f 3d 5e 8a bf 3c 19 66 00 3d c5 28 47 3d
       0.046806376 0.023381408 0.031347368 0.048622865
000130 9a 04 1c 3e 80 68 d6 3d 33 f8 51 bd 21 c0 c2 3c
       0.1523613 0.104691505 -0.05126209 0.023773255
000140 6f 21 ec bd 87 e2 fd bc c0 84 d4 bd 3b 96 e0 bd
       -0.115298145 -0.030991806 -0.103768826 -0.10966154
000150 b5 d7 23 3e c2 27 17 3d 53 7d 0a 3e d0 55 6a 3d
       0.16000254 0.03690315 0.1352437 0.057210743
000160 90 55 af bd 0c 62 12 3d 37 c5 32 be 61 0c 8f bc
       -0.085612416 0.035738036 -0.17458044 -0.017461957
000170 99 9c 46 bd 54 22 77 bd d4 42 05 bc ec 7f 0a bd
       -0.048489187 -0.060335472 -0.008133609 -0.033813402
000180 9e 2e 87 3c a1 52 56 bd 5c 13 7c 3d 11 29 99 bd
       0.016501721 -0.052324895 0.0615419 -0.07478536
000190 b1 d4 b4 bd d2 1f c1 bd c5 ad cd 3d 6a 04 d6 bd
       -0.0882963 -0.09429897 0.100429095 -0.10450061
0001a0 36 95 c4 bd 6c 09 0d be 6e 50 19 bd 66 e2 13 be
       -0.09598772 -0.13773125 -0.03743022 -0.14441833
0001b0 17 bc 99 3d be 88 1b be f1 61 b4 bd 4e 13 86 3e
       0.075065784 -0.15188882 -0.08807743 0.26186603
0001c0 53 56 df bd 96 fc 82 3d f0 1b 11 3e 1c ba a0 bd
       -0.10905137 0.06395833 0.14170814 -0.078479975
0001d0 a7 5b b7 bd b4 19 5e bd bd 2a 56 be f2 75 ed bd
       -0.08953028 -0.05422373 -0.20914741 -0.11594762
0001e0 8d 7f 35 3d 5b c4 cc 3d 9b 8a ce 3d 09 c1 31 bd
       0.044311095 0.09998389 0.10085031 -0.043396983
0001f0 f8 a7 14 3d 02 a5 bb bc ba 03 ad 3c e3 be 45 3e
       0.036293 -0.02290583 0.021119941 0.19311099
000200 c9 e4 fe bc 74 34 87 3d ad 9e d2 3d 67 75 17 be
       -0.031114953 0.066018015 0.10284171 -0.14790879
000210 0d 45 43 3d 36 a2 15 be 4f 40 80 bd da 32 92 bc
       0.047673274 -0.1461266 -0.06262266 -0.017846514
000220 62 76 93 bd 5f cb 56 3e be 93 e3 3c b9 86 93 3d
       -0.07200314 0.20976017 0.02778041 0.07203431
000230 86 b4 45 be 9c 5f ea bd 0c ce 73 3d 78 54 82 bd
       -0.19307145 -0.11444017 0.059522673 -0.063637674
000240 08 d5 f6 39 0f 44 f2 bd 42 cf 9b bd 31 88 37 3d
       0.00047079497 -0.118293874 -0.07607891 0.044807617
000250 56 69 99 3b e7 51 96 3d b4 9f 54 be a2 a6 a7 bd
       0.0046817465 0.073398404 -0.20764047 -0.081860796
000260 60 39 41 39 f4 f5 7a bd 7d e0 84 3a f3 17 db bd
       0.00018427288 -0.061269715 0.0010137704 -0.10697927
000270 17 da 64 be 38 6c ab 3c ef 16 3e bd 31 e3 e1 3d
       -0.2234882 0.020925626 -0.04640859 0.110296614
000280 ac 1e 0f 3d f8 20 ed bd f6 5b 85 bd 22 f7 b5 3c
       0.03494136 -0.11578554 -0.06511681 0.022212569
000290 89 08 8d 3d 14 cf 12 bc 4f a5 10 be e2 75 16 3e
       0.068863936 -0.008960504 -0.1412556 0.14693406
0002a0 7b 7e 08 3d 61 7d 9c bb 50 62 01 3e e4 ee d6 3c
       0.033323746 -0.0047756885 0.1263516 0.026236959
0002b0 0e 43 f0 bd eb 7e f3 bc 4e a6 02 3e ba 1d ec bd
       -0.1173154 -0.029723605 0.12758753 -0.115291074
0002c0 fa d0 2c bc 64 26 15 be 2b fd 36 bd 9d 47 6e bd
       -0.010547871 -0.14565426 -0.044675034 -0.058173764
0002d0 81 7b bc bd 31 4c 7e 3b 76 66 d3 bd d9 7b 75 3c
       -0.09203244 0.0038802738 -0.10322277 0.014983141
0002e0 3a 17 fe 3b c9 68 77 bd 89 2c 2e bd e8 7e ca 3d
       0.0077542337 -0.060402665 -0.04252294 0.09887487
0002f0 df 21 51 3d bf ea 37 bd 6d 2c 49 3d 7e 76 b5 bd
       0.051057693 -0.044901606 0.049114633 -0.08860491
000300 7d 38 52 be 97 32 b2 3d ec 00 cf 3d ce 5b 5d be
       -0.20529361 0.087010555 0.10107598 -0.21617052
000310 fb 71 20 be b1 70 19 bd b6 50 3f 3d cf 64 2f 3e
       -0.1566848 -0.037460987 0.04670783 0.17128299
000320 25 a9 6e 3d 05 7c 95 3c dd 91 9a 3d 19 bb 45 3c
       0.058266778 0.018247614 0.075473525 0.012068533
000330 bf 55 61 bd 1d ac 9c 3c f9 a8 8d bd 14 5d 8d bd
       -0.055013414 0.019125039 -0.069169946 -0.06902519
000340 3f ad c0 3c ca f2 de ba 6e f2 e2 bd c1 3e 7d bd
       0.02352011 -0.0017009613 -0.11081396 -0.061827425
000350 c4 a9 27 bd cd 85 9f 3d 6c a4 3e bd 01 46 ba 3d
       -0.040933385 0.07789192 -0.046543524 0.090953834
000360 77 c4 a9 bc 56 f2 fb bd 81 54 ce bd a1 57 c5 bd
       -0.020723565 -0.12302081 -0.100747116 -0.096358545
000370 fb 9e 84 bd 70 98 f3 ba 6f 31 49 3e 4e 74 f8 3d
       -0.064756356 -0.0018584859 0.19647764 0.12131558
000380 55 de 0a 3e 2f 2b 1f 3c 1a f2 c1 3c 3f e4 15 3d
       0.13561375 0.009714886 0.023675013 0.036594626
000390 ef a3 25 be 00 f3 29 3c fa 63 a2 bc 90 e8 8d bd
       -0.16175817 0.010372877 -0.019823063 -0.069291234
0003a0 80 ca a4 bd ad dd 00 bc ee 96 0d bd bd df 07 be
       -0.08046436 -0.007865352 -0.034567766 -0.13268943
0003b0 1e a5 c2 bd bd 86 18 be a3 7f af 3c e5 85 3c 3e
       -0.0950415 -0.14895149 0.021423167 0.18410452
0003c0 8f b0 8e 3c 85 2d 70 3d 3c f0 49 3e e1 c4 3f be
       0.017418174 0.05863716 0.19720548 -0.18727447
0003d0 93 5e dc bd 9e 55 0c 3d 40 aa 1b be bd 6f be bc
       -0.10760226 0.03426134 -0.15201664 -0.02324664
0003e0 af 62 a2 bc f5 ef 01 3d cc db d6 bc e9 c9 cf bc
       -0.019822447 0.03172298 -0.026227854 -0.025364833
0003f0 53 58 24 be 2b ec 96 3d 4f 7f a9 bd bd bf b3 3d
       -0.16049318 0.07369264 -0.08276235 0.087768055

fc3.bias f4 [32]
000000 7e e1 c1 31 1f 4b 09 b3 48 54 9c 33 f9 37 f9 b2
       5.6426748e-09 -3.196612e-08 7.279647e-08 -2.9012869e-08
000010 48 2f bb b3 be b7 76 34 1b da 8e 32 92 a6 80 b2
       -8.7164665e-08 2.297738e-07 1.6630159e-08 -1.4976909e-08
000020 32 06 04 b4 ec 6f ff 31 d3 c8 24 b3 14 47 45 33
       -1.2295712e-07 7.434201e-09 -3.8366874e-08 4.5932282e-08
000030 ea eb 9d b1 71 2f 8c b1 20 69 a5 b3 6e 8c 0b b3
       -4.5961217e-09 -4.0799297e-09 -7.7025334e-08 -3.249118e-08
000040 be b7 c2 b2 a0 24 06 b3 18 d9 65 b1 79 a7 94 b3
       -2.2668129e-08 -3.1232616e-08 -3.344729e-09 -6.92225e-08
000050 a0 23 98 b3 bf aa a8 b3 e4 cb 64 33 ce 12 ed b2
       -7.084532e-08 -7.854168e-08 5.3270824e-08 -2.7598983e-08
000060 f8 87 45 34 ab 02 df 31 8b c0 8a b3 1b 1a 92 33
       1.839652e-07 6.4904575e-09 -6.461149e-08 6.803403e-08
000070 0a 6d 12 32 5c c6 db b3 45 32 15 33 84 b9 47 33
       8.523111e-09 -1.02340636e-07 3.4737486e-08 4.6502024e-08

bn3.weight f4 [32]
000000 fe b7 a8 3f 80 53 bc 3f a0 a2 a2 3f 03 af b2 3f
       1.318115 1.4712982 1.2705879 1.3959659
000010 90 39 af 3f 1b 9a b9 3f 81 39 b0 3f 2b 07 a5 3f
       1.3689442 1.4500154 1.3767549 1.2892812
000020 ca 6e b6 3f 32 fd b6 3f 59 e5 b2 3f 9a 02 b0 3f
       1.425256 1.4296019 1.3976241 1.3750794
000030 19 28 aa 3f 28 3c b1 3f 2a e3 aa 3f e1 8a af 3f
       1.3293487 1.3846483 1.3350575 1.3714257
000040 28 88 ad 3f 11 53 ad 3f 0f 78 b1 3f e1 57 b1 3f
       1.3557177 1.3540975 1.3864764 1.3854944
000050 74 6c ad 3f 71 25 ab 3f 88 1d ad 3f 3c c8 ad 3f
       1.3548722 1.3370801 1.3524637 1.3576732
000060 75 71 ae 3f 5b d4 ab 3f ee fb b4 3f 3c d5 b0 3f
       1.3628374 1.3424181 1.4139383 1.3815074
000070 36 56 a4 3f ff 65 a9 3f f9 02 af 3f a5 7b ac 3f
       1.283881 1.3234252 1.3672782 1.3475233

bn3.bias f4 [32]
000000 35 9e c7 3e a8 cb a1 3e f5 be d8 3e 3b b0 c0 3e
       0.3898789 0.3160069 0.4233319 0.37634453
000010 7f 7e 81 3e 05 ec cb 3e 9c 8f 95 3e 03 29 7e 3e
       0.2529182 0.39828506 0.29211128 0.24820332
000020 3a 9b aa 3e 54 6d cc 3e 46 1d 8c 3e d5 73 96 3e
       0.33321553 0.3992716 0.27366084 0.29385248
000030 d3 b0 8d 3e 73 c8 9f 3e d9 a3 84 3e 63 90 b5 3e
       0.2767397 0.31207618 0.25906256 0.3546172
000040 01 3c 9f 3e 32 f4 9b 3e 5f 20 9b 3e 8f c6 b3 3e
       0.31100467 0.30459744 0.30298135 0.35112426
000050 e3 40 84 3e 24 a1 d8 3e c7 a0 c1 3e 30 78 cd 3e
       0.25830755 0.4231044 0.37817976 0.40130758
000060 a6 7d b1 3e 44 7c ab 3e bc 75 d3 3e 29 71 b1 3e
       0.34666175 0.33493245 0.41300762 0.34656647
000070 c9 81 66 3e 46 89 76 3e 72 e5 bf 3e 29 04 96 3e
       0.22510447 0.24075803 0.3747974 0.2930005
